PPO_act6000.pth (torch_old, 128709 bytes, 18 tensors)

weight f4 [64, 115]
0	0xbd735ffd	-0.059417713
1	0xbcb3bd61	-0.021940889
2	0x3e37c31d	0.17945524
3	0x3d5a0dab	0.05323569
4	0x3cd06511	0.025438817
5	0x3da40eaf	0.08010613
6	0x3db1b439	0.08676953
7	0x3cff26fc	0.031146519
8	0x3c135343	0.008992019
9	0x3d3ffa51	0.04686958
10	0x3d78900c	0.06068425
11	0x3c9ac35d	0.018891985
12	0xbb64d7be	-0.0034918631
13	0xbcf292ee	-0.029611077
14	0xbc970ee7	-0.018439723
15	0xbdc0872d	-0.09400783
16	0x3d2d719d	0.04234468
17	0xbd6dbb60	-0.058040023
18	0xbcaa0047	-0.020752085
19	0xbc94eee1	-0.018180313
20	0xbdd4d4f2	-0.103921786
21	0xbd798b0e	-0.06092363
22	0x3d8b2889	0.06794841
23	0xbdab87da	-0.08375521
24	0xbcd62d0e	-0.02614453
25	0xbc9087e1	-0.017642917
26	0xbdd6662e	-0.10468708
27	0xbc868577	-0.016421063
28	0xbd9243a9	-0.071418114
29	0x386ac772	5.5975695e-05
30	0xbce75503	-0.028238779
31	0xbde11589	-0.10990436
32	0x3bd4948d	0.006487435
33	0xbd2e6602	-0.04257775
34	0xbd21eb41	-0.039530996
35	0x3d1c5e2b	0.038175743
36	0xbdc622d3	-0.09674611
37	0x3d7885af	0.060674366
38	0x3cdf543e	0.02726185
39	0xbc4de645	-0.012567108
40	0xbdab163d	-0.08353851
41	0xbdbbecf2	-0.09176053
42	0xbdb21f2f	-0.08697354
43	0xbd8030e9	-0.06259329
44	0xbd68992d	-0.056786705
45	0x3d7103a1	0.05884135
46	0x3c85938e	0.016305711
47	0xbd5356a9	-0.051596317
48	0xbd88157e	-0.06644724
49	0x3d84e12b	0.0648826
50	0x3d918aa6	0.07106523
51	0x3c42030c	0.011841547
52	0xbcd361c3	-0.025803452
53	0x3be140e9	0.006874193
54	0xbdc1cb2a	-0.094625786
55	0xbde09ad1	-0.10967029
56	0xbd9da9d8	-0.07698411
57	0x3d1e86db	0.038702827
58	0xbd921188	-0.0713225
59	0xbd692196	-0.056916796
60	0x3d946f23	0.0724776
61	0xbda93ffa	-0.08264156
62	0xbde28c10	-0.11061871
63	0xbd39b922	-0.045342572
64	0xbdca3461	-0.09873272
65	0x3d6803b9	0.056644175
66	0xbd27a7e7	-0.04093161
67	0xbd93d1c4	-0.07217744
68	0x3ca2c138	0.019867525
69	0xbbea65cd	-0.007153249
70	0xbd2b6cba	-0.041851737
71	0xbd6b57ca	-0.05745677
72	0x3ccd5184	0.025063284
73	0xbc8127f2	-0.015766118
74	0x3ba47b35	0.0050195702
75	0xbd8139c2	-0.063098446
76	0xbd2d1fc6	-0.04226663
77	0x3cc8183d	0.02442562
78	0xbca18da3	-0.019720858
79	0x3ca0efc7	0.019645585
80	0x3c1ae24f	0.00945337
81	0xbc877509	-0.016535299
82	0xbd153945	-0.03643157
83	0xbd027caa	-0.03185717
84	0x3d55b1b7	0.052171435
85	0x3c29036c	0.010315757
86	0xbd97c6ee	-0.0741099
87	0xbd3fb1ef	-0.04680055
88	0x3d9c199a	0.076220706
89	0xbdb97f8f	-0.09057533
90	0x3ddf8a97	0.10915106
91	0x3db7b734	0.0897049
92	0xbdaedbc5	-0.085380115
93	0x3dfc4e6d	0.12319646
94	0xbd3cd109	-0.04609779
95	0xbdb07238	-0.086155355
96	0xbd9d6edb	-0.0768716
97	0xbde5f936	-0.11229174
98	0x3dd010bb	0.10159441
99	0x3db0cc52	0.08632721
100	0xbd133fae	-0.0359494
101	0x3cd62ce8	0.02614446
102	0xbc991cac	-0.01869043
103	0xbda15c0f	-0.07878887
104	0xbcd6b608	-0.026209846
105	0x3d9f64ac	0.077828735
106	0x3d0980d4	0.033570126
107	0x3d0bff40	0.034178972
108	0xbcf5fe80	-0.030028582
109	0xbdb6acfa	-0.089197114
110	0x3cf5593c	0.029949777
111	0x3cc8c954	0.024510063
112	0xbcd4d790	-0.025981694
113	0x3db2e9a0	0.08735967
114	0xbb1d2560	-0.0023978576
115	0x3d1d551e	0.038411252
116	0x3da3021c	0.07959387
117	0xbe7fe1bc	-0.24988455
118	0xbd730705	-0.059332866
119	0x3d9f94b6	0.07792036
120	0x3df196ee	0.11796366
121	0xbe82778a	-0.25481826
122	0x3d6e7b81	0.05822325
123	0xbe4020e9	-0.18762554
124	0xbcf5803b	-0.029968372
125	0x3b20c149	0.002452927
126	0x3db80fd9	0.08987398
127	0x3da302f7	0.0795955
128	0x3d08a640	0.033361673
129	0xbd8ad426	-0.06778745
130	0xbc008b5a	-0.007845724
131	0xbd79ca29	-0.06098381
132	0x3d3e0bd3	0.046397995
133	0xbac838b4	-0.0015275688
134	0x3ce3d2e2	0.027810518
135	0x3a246761	0.0006271508
136	0xbdd1c005	-0.10241703
137	0x3cfac4ce	0.030611422
138	0x3d43ac69	0.047771845
139	0xbd271ca9	-0.040798817
140	0xbd6dd688	-0.05806592
141	0xbd89db9d	-0.06731341
142	0x3c3c2d77	0.011485449
143	0x3d624c87	0.055248763
144	0x3da17ef9	0.07885546
145	0x3c185315	0.009297152
146	0xbd991c06	-0.07476048
147	0xbdd3b860	-0.10337901
148	0x3d06d70e	0.032919936
149	0x3d00b7dc	0.031425342
150	0xbd9b0414	-0.07569137
151	0xbd61585c	-0.055015907
152	0x3c39d536	0.011342337
153	0xbbf49fb0	-0.0074653253
154	0xbdac196d	-0.08403287
155	0xbcc719cf	-0.024304299
156	0x3da84681	0.082165726
157	0x3cdab2e0	0.026696622
158	0xbd24dd28	-0.040249974
159	0xbbd1dda5	-0.006404596
160	0xbcd6034c	-0.026124619
161	0x3b90eeef	0.0044230144
162	0xbcacb6d5	-0.021083275
163	0xbd08dc15	-0.03341301
164	0x3d2ea717	0.042639818
165	0xbdcd2ebe	-0.10018681
166	0xbd42332e	-0.04741209
167	0x3c5175e2	0.012784453
168	0xbd857888	-0.0651713
169	0xbd4d0293	-0.050051283
170	0x3c79a68b	0.015237461
171	0x3d875952	0.066088334
172	0xbdc6fbb6	-0.09715979
173	0x3d8bb292	0.06821169
174	0x3d831a35	0.06401483
175	0xbd95ba80	-0.07310963
176	0xbc77992e	-0.0151122045
177	0xbd7df6ee	-0.06200307
178	0x3d3d4516	0.046208464
179	0x3d57724d	0.05259924
180	0xbd812333	-0.06305542
181	0x3ca110ae	0.019661274
182	0x3d047653	0.032339405
183	0x3d9305d2	0.071788445
184	0x3ce4df24	0.027938433
185	0x3d895312	0.067052975
186	0xbc36a4f6	-0.011147728
187	0xbdcc892f	-0.09987103
188	0x3d0c757d	0.034291733
189	0x3d5b0ff2	0.053482004
190	0xbd0d3880	-0.03447771
191	0xbd89f3fb	-0.06735989
192	0x3c3557a1	0.011068256
193	0xbd555c48	-0.05208996
194	0xbd26871e	-0.0406562
195	0x3d6515de	0.055929057
196	0xbd2a713a	-0.041611888
197	0x3cc0488d	0.023472095
198	0x3cd3e0af	0.025863973
199	0x3cbbbf06	0.022918236
200	0x3c8e12e4	0.017342992
201	0xbd796e53	-0.06089623
202	0x3d858d46	0.065210864
203	0xbe55c4b4	-0.20875818
204	0x3e2ef441	0.17085363
205	0xbd83e1fd	-0.06439588
206	0xbe9a6a08	-0.3015902
207	0x3d7eb40b	0.06218342
208	0x3dd3ab08	0.10335356
209	0xbc9b398e	-0.018948343
210	0x3e679f9e	0.22619483
211	0x3dd13963	0.10216024
212	0x3e0a6bd0	0.1351769
213	0xbdb3f900	-0.08787727
214	0x3c36c430	0.011155173
215	0xbba5e270	-0.005062394
216	0xbdaf64f2	-0.08564176
217	0xbd8cdac7	-0.06877666
218	0xbd76a722	-0.060217984
219	0x3c252840	0.010080397
220	0x3d56f044	0.05247523
221	0xbd05d90e	-0.032677703
222	0xbc72b900	-0.014814615
223	0x3d9738d3	0.07383885
224	0x3da1ef8e	0.079070196
225	0x3db27882	0.08714391
226	0xbd982498	-0.07428855
227	0xbcd09368	-0.025460914
228	0x3d2f0d9c	0.04273759
229	0x3da0d81e	0.07853721
230	0x3d4b93e0	0.04970157
231	0x3d3980b2	0.04528875
232	0xbe54831a	-0.20753136
233	0xbe620c6d	-0.22075053
234	0x3ddf44bd	0.10901783
235	0x3dc3a06a	0.09552081
236	0xbe98362c	-0.2972883
237	0xbcca033a	-0.024659742
238	0xbe0ed53f	-0.13948534
239	0xbc04d058	-0.008106314
240	0xbd13d4c6	-0.03609159
241	0x3e0d6a56	0.13810095
242	0xbd036d62	-0.032086737
243	0x3d7a12f8	0.061053246
244	0xbd92be3b	-0.0716519
245	0x3cc28b08	0.023747936
246	0xbd4f150b	-0.050557178
247	0x3d7896fc	0.060690865
248	0x3d1b6a86	0.037943386
249	0xbd1bbd0c	-0.038022086
250	0xbd2012fb	-0.0390806
251	0x3d547b1c	0.05187522
252	0x3cef1887	0.0291865
253	0x3d2e173f	0.042502638
254	0x3d453853	0.048149418
255	0xbc4e2265	-0.0125814425

bias f4 [64]
0	0x3c6e4cba	0.01454466
1	0x3d3a579b	0.045493703
2	0x3b1a4aa7	0.0023543031
3	0x3cf3166c	0.029673778
4	0xbdab5165	-0.08365134
5	0xbcb01eb5	-0.021499017
6	0x3cbc5036	0.022987466
7	0xbcd9dce4	-0.026594587
8	0x3c6653ca	0.014058063
9	0xbcb40a1a	-0.021977473
10	0x3de0b1a9	0.10971386
11	0x3d9491b7	0.072543554
12	0x3bcb5cc5	0.0062061273
13	0x3dfb3e3c	0.1226773
14	0xbd0703a5	-0.03296246
15	0x3d79f25f	0.06102216
16	0x3c334ce1	0.010943622
17	0xbd54542c	-0.051838085
18	0x3c9f925e	0.019478973
19	0xbcc3ed2d	-0.023916805
20	0x3d92927d	0.07156847
21	0x3c4f11fb	0.012638564
22	0x3c2242e1	0.0099036405
23	0xbd521b0a	-0.051295318
24	0x3dced312	0.10098852
25	0xbd7ed81d	-0.06221782
26	0x3dccc021	0.09997583
27	0xbdaf4d6d	-0.0855969
28	0x3daf1d11	0.08550466
29	0xbb39724a	-0.0028296881
30	0x3cbaa306	0.022782814
31	0x3cd9b989	0.026577728
32	0xbd719d13	-0.05898769
33	0x3c5d2477	0.013497463
34	0x3d9c967c	0.0764589
35	0xbdf68f8f	-0.120391004
36	0xbb447461	-0.0029976594
37	0x3d8cfff8	0.0688476
38	0xbd20f2a2	-0.039293893
39	0x3d8805aa	0.06641705
40	0xbc473ebf	-0.012160956
41	0xbd62f01b	-0.055404764
42	0xbd7cf907	-0.06176093
43	0x3cdaa667	0.026690675
44	0xbdd6919d	-0.10476992
45	0x3d62e8a5	0.05539765
46	0xbd658543	-0.05603529
47	0xbd41b24d	-0.04728918
48	0x3babc910	0.0052424744
49	0xbcdb8f34	-0.026801683
50	0xbe2dab84	-0.1695996
51	0x3d4666b1	0.048437778
52	0x3c632d16	0.01386573
53	0x3b0056e8	0.001958305
54	0x3dd4c120	0.10388398
55	0xbb09d93d	-0.0021034025
56	0xbc9d4545	-0.01919807
57	0xbd861b58	-0.06548184
58	0xbd345a32	-0.04403133
59	0xbdd96cf8	-0.10616487
60	0xbd8974c5	-0.06711725
61	0xbd63b00a	-0.055587806
62	0xbc5a3088	-0.013317235
63	0x3d239121	0.039933328

weight f4 [32, 64]
0	0xbdfe4aa2	-0.12416579
1	0xbc9b61d1	-0.018967541
2	0xbe29cadb	-0.1658129
3	0xbcda57d3	-0.026653206
4	0x3a800265	0.0009766339
5	0x3e079991	0.13242175
6	0xbcc53f69	-0.024078088
7	0xbb26a5d0	-0.0025428422
8	0x3db3f941	0.08787776
9	0x3c1bf3cf	0.009518578
10	0x3cd9fe75	0.026610592
11	0x3db8683c	0.09004256
12	0x3cfad8d1	0.030620964
13	0xbd9b2b1e	-0.07576583
14	0xbcc95636	-0.024577241
15	0x3c004210	0.0078282505
16	0xbbc350ed	-0.005960575
17	0x3d790dfd	0.060804356
18	0x3d1682b8	0.036745757
19	0xbd5db822	-0.05413068
20	0x3cd8bff6	0.026458722
21	0x3e0bbdc4	0.13646609
22	0x3be72232	0.007053637
23	0x3c9fb9fe	0.019497868
24	0x3e2ed9ec	0.17075318
25	0xbe09e3cb	-0.13465802
26	0x3dea1f92	0.11431803
27	0xbdbfcfac	-0.09365782
28	0xbded2504	-0.11579326
29	0x3da402b7	0.0800833
30	0x3da48381	0.08032895
31	0x3d3db9f5	0.04631992
32	0x3ad63ec8	0.0016345615
33	0xbe3a1201	-0.1817093
34	0x3dfa0b33	0.12209167
35	0xbd8130b0	-0.063081145
36	0x3ddfec4d	0.10933743
37	0xbdca5fde	-0.098815665
38	0xbd716836	-0.058937274
39	0xbd390707	-0.045172717
40	0xbd27a743	-0.040930998
41	0x3d774796	0.060371004
42	0x3b96876f	0.0045937817
43	0xbd9e9e46	-0.07745032
44	0x3d598883	0.053108703
45	0x3d769885	0.060204048
46	0xbc788ffc	-0.015171047
47	0xbd79a1ed	-0.06094544
48	0xbcc6d7d6	-0.02427284
49	0xbbbeab45	-0.0058187568
50	0xbdee9bcf	-0.11650812
51	0x3d28789e	0.041130655
52	0x3e03d757	0.12875114
53	0x3d1b2bcc	0.037883565
54	0xbc89daf8	-0.016828045
55	0x3d6b73ca	0.057483472
56	0xbd0720fc	-0.03299044
57	0xbe27264e	-0.16323206
58	0x3baf20fd	0.0053445087
59	0x3d797d96	0.060910784
60	0x3c115ceb	0.008872251
61	0x3cda9ccf	0.0266861
62	0x3db16b59	0.08663053
63	0x3d59dd84	0.05318977
64	0x3dab91c2	0.083774105
65	0xbc4e2f60	-0.012584537
66	0x3d377d89	0.044797454
67	0xbaaef0ac	-0.0013346872
68	0xbdef1a5f	-0.11674952
69	0xbca0d0e4	-0.019630857
70	0xbe6257f2	-0.22103861
71	0xbddc9bb1	-0.10771883
72	0x3e0cffd4	0.13769466
73	0x3e1627d7	0.14663635
74	0xbda05493	-0.07828631
75	0xbc1d0600	-0.00958395
76	0x3ca04061	0.019561948
77	0x3cfc2676	0.030780058
78	0xbd89961c	-0.06718084
79	0xbddb2f19	-0.107023425
80	0xbd8a3405	-0.06748203
81	0x3d298b14	0.0413924
82	0x3e1dad7c	0.1539821
83	0x3acde522	0.0015708546
84	0xbc4fae77	-0.012675873
85	0x3d818385	0.063239135
86	0x3d6fa503	0.058506977
87	0xbcad40cf	-0.021149067
88	0x3d3491af	0.044084247
89	0xbd499cc2	-0.04922176
90	0xbd0fd23b	-0.0351126
91	0x3d829a02	0.06377031
92	0xbe12bf67	-0.14330827
93	0x3d80cd3a	0.06289144
94	0x3cf76d22	0.030203406
95	0x3ddd0004	0.107910186
96	0xbdfa0d9c	-0.12209627
97	0xbdaeea82	-0.085408226
98	0x3dc04e19	0.09389896
99	0xbe09265d	-0.1339354
100	0x3c17562e	0.009236855
101	0xbdd22bed	-0.102622844
102	0xbc6a3b56	-0.014296373
103	0x3dc5389b	0.09629937
104	0x3e427825	0.18991144
105	0x3d91f712	0.07127203
106	0x3e52a217	0.20569645
107	0xbca02235	-0.019547561
108	0xbad4e785	-0.0016243315
109	0xbd07ff45	-0.03320243
110	0xbac8861f	-0.001529876
111	0xbd48adb7	-0.048993792
112	0x3d5c231d	0.053744424
113	0x3d9966fa	0.07490344
114	0x3d1ef288	0.038805515
115	0xbe336a0e	-0.17520925
116	0xbe438917	-0.19095264
117	0x3e170f5a	0.1475195
118	0xbdeb0467	-0.11475449
119	0x3e13396f	0.14377378
120	0x3d485845	0.048912305
121	0x3ca8c81b	0.02060323
122	0x3e01235b	0.12611143
123	0xbc8ff009	-0.017570512
124	0xbd305145	-0.043046255
125	0xbd85d973	-0.06535616
126	0x3d09d3b7	0.033649173
127	0xbd1a61d4	-0.037690952
128	0xbd2e7184	-0.042588726
129	0xbe5a5c05	-0.21324165
130	0x3d07fb6b	0.033198755
131	0x3e5825a3	0.21108107
132	0x3c6f7eb3	0.01461761
133	0xbe3cd7f3	-0.18441753
134	0x3d560f64	0.05226077
135	0xbde24e77	-0.11050122
136	0xbc1f15a3	-0.009709748
137	0xbddab160	-0.10678363
138	0xbd5aeb48	-0.053447038
139	0xbdcf5366	-0.10123329
140	0x3dc9ea07	0.0985909
141	0xbe6674fc	-0.22505563
142	0xbe2ec864	-0.1706863
143	0x3b9eabb8	0.004842248
144	0x3d6efc42	0.05834604
145	0x3d0468fa	0.032326676
146	0xbd9d062f	-0.07667195
147	0x3bd1d5a3	0.0064036413
148	0xbe5f506d	-0.21808024
149	0xbdf56046	-0.11981253
150	0x3cced919	0.025250005
151	0x3dbf1270	0.093296885
152	0xbcf159bb	-0.029461732
153	0x3d9b3397	0.07578199
154	0x3d4acde5	0.049512763
155	0xbba2332e	-0.0049499488
156	0x3d4cc1d1	0.049989525
157	0xbc649dfc	-0.013953682
158	0xbc9981f0	-0.018738717
159	0xbcf494f2	-0.029856179
160	0xbd2a4800	-0.04157257
161	0x3daeda13	0.08537688
162	0xbe1aa353	-0.15101366
163	0x3e24fd60	0.1611228
164	0xbd570a54	-0.052500084
165	0x3d8245db	0.0636098
166	0x3d164453	0.036686253
167	0x3b12eea7	0.002242008
168	0xbdc38cb3	-0.095483206
169	0x3d4c23d1	0.049838845
170	0xbdef9b0c	-0.11699495
171	0x3ddea05d	0.108704306
172	0x3e3ed4e3	0.18635897
173	0xbd052b7a	-0.032512166
174	0xbcdd28de	-0.026997026
175	0xbc25ef8b	-0.010127912
176	0xbe418f92	-0.18902424
177	0x3c6fa26c	0.014626127
178	0x3e6fbad8	0.23411119
179	0x3dd170d3	0.10226598
180	0xbcae732d	-0.021295154
181	0xbe046c21	-0.12931873
182	0xbd637752	-0.055533715
183	0xbe2caa9a	-0.16861954
184	0x3d463eb2	0.048399635
185	0x3dbc1a1c	0.091846675
186	0xbbf5383b	-0.00748351
187	0x3e4d39c3	0.20041566
188	0xbccddb68	-0.025129035
189	0x3e3f5f54	0.18688709
190	0x3d945518	0.07242793
191	0x3e51d37d	0.20490833
192	0x3c65c62b	0.014024298
193	0x3d8b02b8	0.06787628
194	0x3cf4b0bb	0.029869428
195	0xbd296b88	-0.041362315
196	0xbe0060fd	-0.12536998
197	0x3c22efc1	0.009944857
198	0xbcf35bd7	-0.029706879
199	0x3ce08eeb	0.027411899
200	0xbdee0fb2	-0.116240874
201	0x3bc2e8c5	0.0059481584
202	0x3d2077ea	0.03917686
203	0x3d04c13f	0.032410856
204	0x3dd7ddac	0.105403274
205	0xbd131ece	-0.03591805
206	0x3e23d351	0.1599858
207	0x3db03886	0.08604531
208	0xbd846d67	-0.06466179
209	0xbda27e7c	-0.07934281
210	0xbe3ad83b	-0.18246548
211	0x3dcf939e	0.101355776
212	0x3dc41cd8	0.09575814
213	0x3d74a7bf	0.059730288
214	0xbe5167cf	-0.20449756
215	0x3c406068	0.011741735
216	0xbb881c56	-0.0041537685
217	0xbccb13d9	-0.024789738
218	0x3cee23ff	0.029069899
219	0xbd15c944	-0.036568895
220	0x3e275db8	0.16344345
221	0x3e14f040	0.14544773
222	0x3d9084a1	0.07056547
223	0x3e044451	0.12916686
224	0x3e6a357b	0.22871964
225	0x3dd894ed	0.1057528
226	0x3dc2e84b	0.095169626
227	0xbe3d929f	-0.18512963
228	0xbe2e1d24	-0.17003304
229	0x3de7ad30	0.1131233
230	0xbd5f177a	-0.05446575
231	0xbe1c2664	-0.1524902
232	0xbe1c9203	-0.15290074
233	0xbcd99bf1	-0.026563616
234	0xbe84897e	-0.25886148
235	0xbcbb5c00	-0.022871017
236	0xbe22d089	-0.15899862
237	0x3c8ba15b	0.017044714
238	0xbdf77f4c	-0.12084827
239	0x3d2c6fe2	0.042098887
240	0x3be3e47a	0.0069547268
241	0x3e3a29cb	0.18180005
242	0x3cfc3e90	0.03079155
243	0x3dfd495b	0.12367507
244	0x3e1c9c80	0.15294075
245	0xbc8490c1	-0.016182305
246	0x3e0c8fd8	0.13726747
247	0x3e2f110f	0.17096351
248	0xbda355a6	-0.079753205
249	0xbdb5d236	-0.08877985
250	0xbdb989f7	-0.09059518
251	0xbe144339	-0.14478768
252	0xbe27e5dc	-0.16396278
253	0xbc07eb12	-0.008295791
254	0x3dc15a2d	0.09441028
255	0xbe4a4d36	-0.19756016

bias f4 [32]
0	0x3e06f29a	0.13178483
1	0x3c5316ba	0.012883836
2	0xbe5d4a48	-0.21610367
3	0x3d145aff	0.036219593
4	0x3cef0002	0.029174808
5	0x3dcc0316	0.09961526
6	0x3e28e004	0.16491705
7	0xbd8ce8af	-0.068803184
8	0x3d67d5a0	0.056600213
9	0x3c996599	0.018725203
10	0x3d372783	0.044715416
11	0xbd993e70	-0.07482612
12	0xbde3fab4	-0.11131802
13	0x3d9585f6	0.07300942
14	0x3c132c65	0.008982752
15	0x3c9b78d2	0.01897851
16	0xbc665990	-0.014059439
17	0x3d326c2b	0.04356019
18	0x3d8a7d9d	0.0676224
19	0xbd92c168	-0.071657956
20	0x3e026eb5	0.12737544
21	0x3b1b7db7	0.0023726055
22	0x3de873a1	0.113501795
23	0x3da7d390	0.08194649
24	0xbddaa0fa	-0.10675235
25	0x3d2e57b6	0.042564116
26	0x3d82d371	0.063879855
27	0xbdc2090f	-0.09474384
28	0xbdb50c75	-0.088402666
29	0xbd56c8d0	-0.052437603
30	0x3dd4522c	0.103672355
31	0x3d636909	0.05552009

weight f4 [19, 32]
0	0xbdebf20b	-0.115207754
1	0x3bb0c8ce	0.0053950315
2	0x3df933f9	0.12168116
3	0x3e4401d6	0.19141325
4	0xbe9a3a43	-0.30122575
5	0xbe295bcb	-0.16538922
6	0xbce96bfb	-0.028493872
7	0xbe7b970b	-0.24569337
8	0xbe7dad74	-0.24773198
9	0xbe194d68	-0.14970934
10	0x3d1e83b6	0.038699828
11	0x3e881c24	0.2658397
12	0x3d93e6ec	0.07221779
13	0x3d91f8a4	0.071275026
14	0xbe800463	-0.25003347
15	0xbd2168bd	-0.039406527
16	0x3da090a4	0.07840088
17	0xbe7af072	-0.24505785
18	0xbddf9555	-0.10917155
19	0x3de60df5	0.11233131
20	0xbe2cc246	-0.16870984
21	0xbe5712a8	-0.2100321
22	0xbdc17e14	-0.094478756
23	0xbe9f8137	-0.3115327
24	0x3dc38162	0.09546162
25	0xbe7268ea	-0.23672834
26	0x3e571758	0.21004999
27	0xbe90a28f	-0.28249022
28	0x3e012340	0.12611103
29	0x3e612013	0.21984892
30	0x3eedb4d6	0.4642703
31	0x3c5ea3b3	0.013588834
32	0x3e0109c6	0.12601385
33	0xbe95c278	-0.2924993
34	0x3d818738	0.06324619
35	0x3dd077e2	0.10179116
36	0xbe5f3e7e	-0.21801183
37	0xbead5d28	-0.33860135
38	0x3db6ca7a	0.08925338
39	0xbe810b55	-0.25203958
40	0xbd0b92c2	-0.034075506
41	0xbe3bb86e	-0.18332073
42	0xbdab5abf	-0.08366918
43	0x3e3cc6d1	0.18435217
44	0xbd03951e	-0.03212463
45	0x3d661dbb	0.056180697
46	0x3dbbb71c	0.09165785
47	0xbdca332a	-0.0987304
48	0xbdbfddca	-0.09368475
49	0xbe629b8d	-0.2212965
50	0x3dc60cb8	0.09670395
51	0x3eab24b5	0.33426443
52	0x3c188e8a	0.009311328
53	0xbecd3d28	-0.4008572
54	0xbe84f271	-0.25966218
55	0xbec84a4c	-0.39119184
56	0x3d190662	0.037359603
57	0xbe58c95e	-0.21170565
58	0x3e7f229a	0.24915543
59	0xbe091902	-0.13388446
60	0x3d5e5d71	0.05428833
61	0xbdf1952e	-0.11796032
62	0x3e84fa94	0.25972426
63	0x3e7e15f3	0.2481306
64	0xbca877dd	-0.020564968
65	0xbe90b7bd	-0.2826518
66	0x3e7c84cf	0.24660037
67	0x3dcda45a	0.10041113
68	0xbe179704	-0.14803702
69	0xbdb37547	-0.08762603
70	0xbce01de8	-0.02735801
71	0xbe8e5acc	-0.27803648
72	0xbe50e794	-0.2040084
73	0x3dce5761	0.1007526
74	0xbe2e1843	-0.17001443
75	0x3ca1502d	0.019691551
76	0xbe842386	-0.25808352
77	0xbdeb50dd	-0.11490033
78	0xbe58add0	-0.21160054
79	0xbd91868e	-0.071057424
80	0x3b773fca	0.003772723
81	0xbed87a65	-0.4228088
82	0x3dbf8050	0.093506455
83	0x3e24805f	0.16064595
84	0x3defc6e0	0.11707854
85	0xbe55304b	-0.20819204
86	0xbdc0576a	-0.09391673
87	0xbe872121	-0.26392463
88	0x3eac9be5	0.33712688
89	0xbe6ab55b	-0.22920744
90	0x3dc9566f	0.09830939
91	0xbe879a4c	-0.26484907
92	0xbd355e0d	-0.044279147
93	0x3e9be2e8	0.30446553
94	0x3dd6e750	0.10493338
95	0x3d1c62d7	0.0381802
96	0x3e3d1e88	0.18468678
97	0x3ce76b7e	0.028249498
98	0x3e1521c3	0.1456366
99	0xbdf4bc64	-0.11949995
100	0x3dcb308c	0.09921369
101	0xbe6d783d	-0.23190399
102	0xbd45ee31	-0.04832286
103	0xbdffacef	-0.12484156
104	0xbe590c89	-0.21196188
105	0xbd03bdf1	-0.032163564
106	0x3dd4f4e1	0.103982694
107	0x3e0b4242	0.13599494
108	0xbdea0fa4	-0.114287645
109	0x3db4936f	0.08817183
110	0xbdbe04e9	-0.0927828
111	0x3c8ae0d7	0.016952915
112	0xbe180ae5	-0.14847906
113	0xbca9b4a0	-0.020716012
114	0x3de50164	0.11181906
115	0xbe064444	-0.13111979
116	0x3ae213ca	0.0017248329
117	0xbe811868	-0.25213933
118	0xbe3ac451	-0.18238951
119	0xbe610776	-0.21975502
120	0x3e44087c	0.19143862
121	0xbe2537d0	-0.16134572
122	0x3e6007c5	0.21877964
123	0x3b911a27	0.0044281664
124	0xbdb5dd9a	-0.08880158
125	0xbd36ec45	-0.044658918
126	0x3e9e4fc3	0.30920228
127	0xbd87fb4d	-0.06639729
128	0xbe3720e4	-0.1788364
129	0xbdf06163	-0.11737325
130	0x3e53aa68	0.20670474
131	0xbb787e09	-0.003791692
132	0xbe48b8a9	-0.19601692
133	0xbe8531ba	-0.260145
134	0x3e72dd83	0.23717313
135	0xbe3dbe59	-0.18529643
136	0xbe85fdfd	-0.2617034
137	0xbcab8f54	-0.020942368
138	0xbda5ca08	-0.08095175
139	0x3e05f7dd	0.13082834
140	0xbe196a77	-0.1498202
141	0x3d290af6	0.04127022
142	0xbde13e4f	-0.109982125
143	0xbd184803	-0.03717805
144	0xbd2e03b3	-0.042483997
145	0xbd6c4bc1	-0.057689432
146	0xbc0cb190	-0.008587256
147	0x3e52a8d4	0.20572215
148	0x3d3601e5	0.0444354
149	0xbe134353	-0.14381151
150	0xbd1f4bfb	-0.03889082
151	0xbe1e114d	-0.15436287
152	0x3dae0968	0.08497888
153	0xbe944314	-0.28957427
154	0x3e2bc0fc	0.16772836
155	0xbc944355	-0.018098513
156	0x3d02f410	0.031971037
157	0x3c4e382d	0.012586636
158	0x3e01e47d	0.12684818
159	0x3dd0e89d	0.102006175
160	0xbe377e42	-0.17919257
161	0xbdf3fe27	-0.1191371
162	0xbd4cff55	-0.05004819
163	0xbd6cd02e	-0.057815723
164	0xbdfca397	-0.1233589
165	0xbecdee38	-0.4022081
166	0x3d9f67ad	0.077834465
167	0xbe3f8905	-0.18704613
168	0xbdfb6021	-0.122741945
169	0xbd902c83	-0.0703974
170	0xbc4d0628	-0.012513675
171	0xbd1bd7b2	-0.0380475
172	0xbe3ddfcb	-0.18542401
173	0xbdfa7fb3	-0.12231388
174	0x3df86aac	0.12129721
175	0xbddcad08	-0.107751906
176	0xbdefb30b	-0.117040716
177	0xbe23d925	-0.16000803
178	0xbddf1533	-0.10892715
179	0x3ea55234	0.32289279
180	0xbd76d774	-0.060264066
181	0xbea163d0	-0.31521463
182	0x3c6a23ec	0.014290791
183	0xbdf7817b	-0.12085243
184	0x3e3ee502	0.18642047
185	0xbe084078	-0.13305843
186	0x3d3e17ae	0.0464093
187	0xbaf8101f	-0.0018925703
188	0x3e879ac9	0.2648528
189	0xbe20ae3a	-0.15691462
190	0x3ded4471	0.1158532
191	0xbca43d47	-0.02004875
192	0xbc60bfb2	-0.013717579
193	0xbc45be61	-0.012069316
194	0xbdcd2773	-0.1001729
195	0x3d8696bf	0.06571721
196	0xbdd1f783	-0.10252287
197	0xbde70f6d	-0.11282239
198	0x3df3ed76	0.119105265
199	0x3bb7f509	0.0056139273
200	0xbd6a8703	-0.057257663
201	0xbe78808b	-0.24267785
202	0x3d9dd83a	0.077072576
203	0xbdbc8810	-0.09205639
204	0xbca531e3	-0.02016539
205	0x3e52665c	0.2054686
206	0xbcc2c9ba	-0.023777831
207	0x3d8e4432	0.06946601
208	0xbd0056f3	-0.03133292
209	0xbe1db70d	-0.1540186
210	0x3d645612	0.055746146
211	0x3e12f236	0.14350209
212	0x3d03a49f	0.032139417
213	0xbe916442	-0.28396803
214	0xbd60c2af	-0.054873165
215	0xbe986f85	-0.29772583
216	0x3e058566	0.13039169
217	0xbc4bc238	-0.012436442
218	0x3d947ff5	0.07250968
219	0xbd959d54	-0.073053986
220	0x3d8495de	0.064738974
221	0x3d3b14cc	0.04567413
222	0x3e799351	0.24372603
223	0x3dfff90d	0.124986745
224	0x3c6b1be1	0.014349909
225	0xbe2d9deb	-0.16954772
226	0xbc631841	-0.013860763
227	0x3e67659d	0.22597356
228	0xbe211dbe	-0.15734002
229	0xbe9b00e0	-0.30274105
230	0x3e489cf1	0.19591118
231	0xbe006407	-0.12538157
232	0xbd9a243e	-0.07526444
233	0xbc066dcf	-0.008204891
234	0xbe85e6b9	-0.2615259
235	0x3d62b782	0.055350788
236	0xbe0da398	-0.13831937
237	0x3e598e3b	0.21245663
238	0x3df28102	0.118410125
239	0x3e30aebc	0.17254156
240	0xbe10e7fe	-0.14150998
241	0xbe6b7d4f	-0.2299702
242	0x3d26dc90	0.04073769
243	0x3e40a66a	0.18813482
244	0x3e307ab2	0.17234305
245	0xbe8b2f7d	-0.27184668
246	0xbe61da70	-0.22055984
247	0xbe1c083b	-0.15237515
248	0x3e0feceb	0.14055221
249	0xbe940f0b	-0.28917727
250	0x3e935670	0.28776884
251	0x3d6933ea	0.056934275
252	0x3dd1db65	0.10246924
253	0x3e6fff70	0.23437285
254	0x3ef9bffe	0.4877929
255	0x3e1efd31	0.15526272

bias f4 [19]
0	0x3df94d41	0.12172938
1	0x3eca6845	0.39532676
2	0x3e02bd39	0.12767495
3	0xbdb5516a	-0.08853419
4	0xbddb6c26	-0.10713987
5	0xbcb88b75	-0.022527436
6	0x3e794ff1	0.24346901
7	0x3d88afde	0.06674169
8	0xbd105177	-0.03523394
9	0x3e8201c8	0.25391984
10	0x3da73ae9	0.08165533
11	0x3e5408c9	0.20706476
12	0xbd2d4882	-0.042305477
13	0xbbc20670	-0.0059211776
14	0x3e979002	0.29602057
15	0x3e143fed	0.14477511
16	0x3e841873	0.25799903
17	0x3deb8dfa	0.11501689
18	0x3e20743b	0.15669338

exp_avg f4 [64, 115]
0	0x352b3a22	6.378706e-07
1	0x33c749dd	9.280095e-08
2	0x34bb3991	3.487335e-07
3	0x3385380c	6.20349e-08
4	0x320a8de6	8.064921e-09
5	0xb1963196	-4.371212e-09
6	0xb25b30a0	-1.2758534e-08
7	0xb03f70cd	-6.9645695e-10
8	0x346f2549	2.2272174e-07
9	0x340c45b9	1.3063881e-07
10	0xb1d39110	-6.1574e-09
11	0x31b619b5	5.2998197e-09
12	0x3551b04e	7.8115124e-07
13	0x3551b04e	7.8115124e-07
14	0x3551b04e	7.8115124e-07
15	0x3551b04e	7.8115124e-07
16	0x3551b04e	7.8115124e-07
17	0x3551b04e	7.8115124e-07
18	0x3551b04e	7.8115124e-07
19	0x3551b04e	7.8115124e-07
20	0x3551b04e	7.8115124e-07
21	0x3551b04e	7.8115124e-07
22	0x3551b04e	7.8115124e-07
23	0x3551b04e	7.8115124e-07
24	0x3551b04e	7.8115124e-07
25	0x3551b04e	7.8115124e-07
26	0x3551b04e	7.8115124e-07
27	0x3551b04e	7.8115124e-07
28	0x3551b04e	7.8115124e-07
29	0x3551b04e	7.8115124e-07
30	0x3551b04e	7.8115124e-07
31	0x3551b04e	7.8115124e-07
32	0x3551b04e	7.8115124e-07
33	0x3551b04e	7.8115124e-07
34	0x3551b04e	7.8115124e-07
35	0x3551b04e	7.8115124e-07
36	0x3551b04e	7.8115124e-07
37	0x3551b04e	7.8115124e-07
38	0x3551b04e	7.8115124e-07
39	0x3551b04e	7.8115124e-07
40	0x3551b04e	7.8115124e-07
41	0x3551b04e	7.8115124e-07
42	0x3551b04e	7.8115124e-07
43	0x3551b04e	7.8115124e-07
44	0x3551b04e	7.8115124e-07
45	0x3551b04e	7.8115124e-07
46	0x3551b04e	7.8115124e-07
47	0x3551b04e	7.8115124e-07
48	0x3551b04e	7.8115124e-07
49	0x3551b04e	7.8115124e-07
50	0x3551b04e	7.8115124e-07
51	0x3551b04e	7.8115124e-07
52	0x3551b04e	7.8115124e-07
53	0x3551b04e	7.8115124e-07
54	0x3551b04e	7.8115124e-07
55	0x3551b04e	7.8115124e-07
56	0x3551b04e	7.8115124e-07
57	0x3551b04e	7.8115124e-07
58	0x3551b04e	7.8115124e-07
59	0x3551b04e	7.8115124e-07
60	0x3551b04e	7.8115124e-07
61	0x3551b04e	7.8115124e-07
62	0x3551b04e	7.8115124e-07
63	0x3551b04e	7.8115124e-07
64	0x3551b04e	7.8115124e-07
65	0x3551b04e	7.8115124e-07
66	0x3551b04e	7.8115124e-07
67	0x3551b04e	7.8115124e-07
68	0x3551b04e	7.8115124e-07
69	0x3551b04e	7.8115124e-07
70	0x3551b04e	7.8115124e-07
71	0x3551b04e	7.8115124e-07
72	0x3551b04e	7.8115124e-07
73	0x3551b04e	7.8115124e-07
74	0x3551b04e	7.8115124e-07
75	0x3551b04e	7.8115124e-07
76	0x3551b04e	7.8115124e-07
77	0x3551b04e	7.8115124e-07
78	0x3551b04e	7.8115124e-07
79	0x3551b04e	7.8115124e-07
80	0x3551b04e	7.8115124e-07
81	0x3551b04e	7.8115124e-07
82	0x3551b04e	7.8115124e-07
83	0x3551b04e	7.8115124e-07
84	0x3551b04e	7.8115124e-07
85	0x3551b04e	7.8115124e-07
86	0x3551b04e	7.8115124e-07
87	0x3551b04e	7.8115124e-07
88	0x34366375	1.6986253e-07
89	0x33e71860	1.07612095e-07
90	0x348a1919	2.5722764e-07
91	0xb09d5132	-1.144633e-09
92	0x30565e47	7.798672e-10
93	0xb5143abd	-5.521977e-07
94	0xb549d7a4	-7.5192133e-07
95	0xb2fb1534	-2.9229888e-08
96	0x0f96678b	1.4831025e-29
97	0xb3e0421a	-1.04428366e-07
98	0xb535a809	-6.767228e-07
99	0x00000000	0.0
100	0x00000000	0.0
101	0x00000000	0.0
102	0x00000000	0.0
103	0x00000000	0.0
104	0x00000000	0.0
105	0x00000000	0.0
106	0x00000000	0.0
107	0x00000000	0.0
108	0xb551b04e	-7.8115124e-07
109	0x00000000	0.0
110	0x00000000	0.0
111	0x00000000	0.0
112	0x00000000	0.0
113	0x00000000	0.0
114	0x00000000	0.0
115	0xb7b4c53e	-2.154952e-05
116	0xb6c73942	-5.937328e-06
117	0xb779e3ba	-1.4894578e-05
118	0xb6548603	-3.1668467e-06
119	0xb435f260	-1.6945114e-07
120	0x340356c4	1.2231891e-07
121	0xb3d43881	-9.882297e-08
122	0x32ae77aa	2.0310683e-08
123	0xb704d58e	-7.917535e-06
124	0xb612cad3	-2.1873755e-06
125	0x34129b34	1.3653772e-07
126	0xb4343da7	-1.6786235e-07
127	0xb7f97219	-2.9736244e-05
128	0xb7f97219	-2.9736244e-05
129	0xb7f97219	-2.9736244e-05
130	0xb7f97219	-2.9736244e-05
131	0xb7f97219	-2.9736244e-05
132	0xb7f97219	-2.9736244e-05
133	0xb7f97219	-2.9736244e-05
134	0xb7f97219	-2.9736244e-05
135	0xb7f97219	-2.9736244e-05
136	0xb7f97219	-2.9736244e-05
137	0xb7f97219	-2.9736244e-05
138	0xb7f97219	-2.9736244e-05
139	0xb7f97219	-2.9736244e-05
140	0xb7f97219	-2.9736244e-05
141	0xb7f97219	-2.9736244e-05
142	0xb7f97219	-2.9736244e-05
143	0xb7f97219	-2.9736244e-05
144	0xb7f97219	-2.9736244e-05
145	0xb7f97219	-2.9736244e-05
146	0xb7f97219	-2.9736244e-05
147	0xb7f97219	-2.9736244e-05
148	0xb7f97219	-2.9736244e-05
149	0xb7f97219	-2.9736244e-05
150	0xb7f97219	-2.9736244e-05
151	0xb7f97219	-2.9736244e-05
152	0xb7f97219	-2.9736244e-05
153	0xb7f97219	-2.9736244e-05
154	0xb7f97219	-2.9736244e-05
155	0xb7f97219	-2.9736244e-05
156	0xb7f97219	-2.9736244e-05
157	0xb7f97219	-2.9736244e-05
158	0xb7f97219	-2.9736244e-05
159	0xb7f97219	-2.9736244e-05
160	0xb7f97219	-2.9736244e-05
161	0xb7f97219	-2.9736244e-05
162	0xb7f97219	-2.9736244e-05
163	0xb7f97219	-2.9736244e-05
164	0xb7f97219	-2.9736244e-05
165	0xb7f97219	-2.9736244e-05
166	0xb7f97219	-2.9736244e-05
167	0xb7f97219	-2.9736244e-05
168	0xb7f97219	-2.9736244e-05
169	0xb7f97219	-2.9736244e-05
170	0xb7f97219	-2.9736244e-05
171	0xb7f97219	-2.9736244e-05
172	0xb7f97219	-2.9736244e-05
173	0xb7f97219	-2.9736244e-05
174	0xb7f97219	-2.9736244e-05
175	0xb7f97219	-2.9736244e-05
176	0xb7f97219	-2.9736244e-05
177	0xb7f97219	-2.9736244e-05
178	0xb7f97219	-2.9736244e-05
179	0xb7f97219	-2.9736244e-05
180	0xb7f97219	-2.9736244e-05
181	0xb7f97219	-2.9736244e-05
182	0xb7f97219	-2.9736244e-05
183	0xb7f97219	-2.9736244e-05
184	0xb7f97219	-2.9736244e-05
185	0xb7f97219	-2.9736244e-05
186	0xb7f97219	-2.9736244e-05
187	0xb7f97219	-2.9736244e-05
188	0xb7f97219	-2.9736244e-05
189	0xb7f97219	-2.9736244e-05
190	0xb7f97219	-2.9736244e-05
191	0xb7f97219	-2.9736244e-05
192	0xb7f97219	-2.9736244e-05
193	0xb7f97219	-2.9736244e-05
194	0xb7f97219	-2.9736244e-05
195	0xb7f97219	-2.9736244e-05
196	0xb7f97219	-2.9736244e-05
197	0xb7f97219	-2.9736244e-05
198	0xb7f97219	-2.9736244e-05
199	0xb7f97219	-2.9736244e-05
200	0xb7f97219	-2.9736244e-05
201	0xb7f97219	-2.9736244e-05
202	0xb7f97219	-2.9736244e-05
203	0xb73e90a0	-1.1358556e-05
204	0xb6a4480a	-4.8959673e-06
205	0x3787dcce	1.6196074e-05
206	0x350a5913	5.1538626e-07
207	0x33df6fca	1.0404581e-07
208	0x35add968	1.2952778e-06
209	0x37fafcbc	2.9920011e-05
210	0xb44551f1	-1.8376865e-07
211	0x8e4f611b	-2.5561474e-30
212	0x35642e95	8.5004405e-07
213	0x37f250a4	2.88862e-05
214	0x00000000	0.0
215	0x00000000	0.0
216	0x00000000	0.0
217	0x00000000	0.0
218	0x00000000	0.0
219	0x00000000	0.0
220	0x00000000	0.0
221	0x00000000	0.0
222	0x00000000	0.0
223	0x37f97219	2.9736244e-05
224	0x00000000	0.0
225	0x00000000	0.0
226	0x00000000	0.0
227	0x00000000	0.0
228	0x00000000	0.0
229	0x00000000	0.0
230	0xb8ed2665	-0.00011308192
231	0xb80418ea	-3.1494455e-05
232	0xb8a56aab	-7.8876816e-05
233	0xb790508b	-1.7203643e-05
234	0xb5806259	-9.565366e-07
235	0x35448495	7.320862e-07
236	0xb504918f	-4.938565e-07
237	0x33b176b8	8.2637996e-08
238	0xb82d9add	-4.1390642e-05
239	0xb73b2a71	-1.115595e-05
240	0x35305e49	6.570231e-07
241	0xb582b590	-9.738596e-07
242	0xb9243cdc	-0.0001566293
243	0xb9243cdc	-0.0001566293
244	0xb9243cdc	-0.0001566293
245	0xb9243cdc	-0.0001566293
246	0xb9243cdc	-0.0001566293
247	0xb9243cdc	-0.0001566293
248	0xb9243cdc	-0.0001566293
249	0xb9243cdc	-0.0001566293
250	0xb9243cdc	-0.0001566293
251	0xb9243cdc	-0.0001566293
252	0xb9243cdc	-0.0001566293
253	0xb9243cdc	-0.0001566293
254	0xb9243cdc	-0.0001566293
255	0xb9243cdc	-0.0001566293

exp_avg_sq f4 [64, 115]
0	0x2ef8b7e2	1.13103985e-10
1	0x2b0431d4	4.696497e-13
2	0x2e5c1c8e	5.004757e-11
3	0x2acd1c0a	3.643477e-13
4	0x27dea869	6.179997e-15
5	0x268c139e	9.719769e-16
6	0x2899ab5c	1.7060728e-14
7	0x26437e62	6.7825496e-16
8	0x2e54edb4	4.8414342e-11
9	0x2a30b370	1.5694195e-13
10	0x28f0f2c7	2.675064e-14
11	0x25feb063	4.41815e-16
12	0x2f3d8860	1.72379e-10
13	0x2f3d8860	1.72379e-10
14	0x2f3d8860	1.72379e-10
15	0x2f3d8860	1.72379e-10
16	0x2f3d8860	1.72379e-10
17	0x2f3d8860	1.72379e-10
18	0x2f3d8860	1.72379e-10
19	0x2f3d8860	1.72379e-10
20	0x2f3d8860	1.72379e-10
21	0x2f3d8860	1.72379e-10
22	0x2f3d8860	1.72379e-10
23	0x2f3d8860	1.72379e-10
24	0x2f3d8860	1.72379e-10
25	0x2f3d8860	1.72379e-10
26	0x2f3d8860	1.72379e-10
27	0x2f3d8860	1.72379e-10
28	0x2f3d8860	1.72379e-10
29	0x2f3d8860	1.72379e-10
30	0x2f3d8860	1.72379e-10
31	0x2f3d8860	1.72379e-10
32	0x2f3d8860	1.72379e-10
33	0x2f3d8860	1.72379e-10
34	0x2f3d8860	1.72379e-10
35	0x2f3d8860	1.72379e-10
36	0x2f3d8860	1.72379e-10
37	0x2f3d8860	1.72379e-10
38	0x2f3d8860	1.72379e-10
39	0x2f3d8860	1.72379e-10
40	0x2f3d8860	1.72379e-10
41	0x2f3d8860	1.72379e-10
42	0x2f3d8860	1.72379e-10
43	0x2f3d8860	1.72379e-10
44	0x2f3d8860	1.72379e-10
45	0x2f3d8860	1.72379e-10
46	0x2f3d8860	1.72379e-10
47	0x2f3d8860	1.72379e-10
48	0x2f3d8860	1.72379e-10
49	0x2f3d8860	1.72379e-10
50	0x2f3d8860	1.72379e-10
51	0x2f3d8860	1.72379e-10
52	0x2f3d8860	1.72379e-10
53	0x2f3d8860	1.72379e-10
54	0x2f3d8860	1.72379e-10
55	0x2f3d8860	1.72379e-10
56	0x2f3d8860	1.72379e-10
57	0x2f3d8860	1.72379e-10
58	0x2f3d8860	1.72379e-10
59	0x2f3d8860	1.72379e-10
60	0x2f3d8860	1.72379e-10
61	0x2f3d8860	1.72379e-10
62	0x2f3d8860	1.72379e-10
63	0x2f3d8860	1.72379e-10
64	0x2f3d8860	1.72379e-10
65	0x2f3d8860	1.72379e-10
66	0x2f3d8860	1.72379e-10
67	0x2f3d8860	1.72379e-10
68	0x2f3d8860	1.72379e-10
69	0x2f3d8860	1.72379e-10
70	0x2f3d8860	1.72379e-10
71	0x2f3d8860	1.72379e-10
72	0x2f3d8860	1.72379e-10
73	0x2f3d8860	1.72379e-10
74	0x2f3d8860	1.72379e-10
75	0x2f3d8860	1.72379e-10
76	0x2f3d8860	1.72379e-10
77	0x2f3d8860	1.72379e-10
78	0x2f3d8860	1.72379e-10
79	0x2f3d8860	1.72379e-10
80	0x2f3d8860	1.72379e-10
81	0x2f3d8860	1.72379e-10
82	0x2f3d8860	1.72379e-10
83	0x2f3d8860	1.72379e-10
84	0x2f3d8860	1.72379e-10
85	0x2f3d8860	1.72379e-10
86	0x2f3d8860	1.72379e-10
87	0x2f3d8860	1.72379e-10
88	0x2ed80cd9	9.824825e-11
89	0x2bbdc603	1.3484217e-12
90	0x2ee2eacd	1.0318999e-10
91	0x2a6c1a5b	2.0970155e-13
92	0x280cc51f	7.814305e-15
93	0x2d71b6e9	1.3739878e-11
94	0x2f30a7ef	1.6066769e-10
95	0x2d3307ba	1.0176688e-11
96	0x2bd7f446	1.5344468e-12
97	0x2e7ba996	5.7221415e-11
98	0x2efd3be9	1.151575e-10
99	0x00000000	0.0
100	0x00000000	0.0
101	0x00000000	0.0
102	0x00000000	0.0
103	0x00000000	0.0
104	0x00000000	0.0
105	0x00000000	0.0
106	0x00000000	0.0
107	0x00000000	0.0
108	0x2f3d8860	1.72379e-10
109	0x00000000	0.0
110	0x00000000	0.0
111	0x00000000	0.0
112	0x00000000	0.0
113	0x00000000	0.0
114	0x00000000	0.0
115	0x34cc9587	3.8106757e-07
116	0x2e2582f4	3.7632966e-11
117	0x349cccc9	2.9206265e-07
118	0x2f7303d5	2.2102083e-10
119	0x2beb1693	1.670402e-12
120	0x2a17faa3	1.3498451e-13
121	0x2e47fb56	4.5470593e-11
122	0x2b332353	6.3642597e-13
123	0x3382192a	6.058174e-08
124	0x2ee2cf32	1.03140954e-10
125	0x2eefbba7	1.09017954e-10
126	0x2af9803a	4.432026e-13
127	0x35174647	5.635415e-07
128	0x35174647	5.635415e-07
129	0x35174647	5.635415e-07
130	0x35174647	5.635415e-07
131	0x35174647	5.635415e-07
132	0x35174647	5.635415e-07
133	0x35174647	5.635415e-07
134	0x35174647	5.635415e-07
135	0x35174647	5.635415e-07
136	0x35174647	5.635415e-07
137	0x35174647	5.635415e-07
138	0x35174647	5.635415e-07
139	0x35174647	5.635415e-07
140	0x35174647	5.635415e-07
141	0x35174647	5.635415e-07
142	0x35174647	5.635415e-07
143	0x35174647	5.635415e-07
144	0x35174647	5.635415e-07
145	0x35174647	5.635415e-07
146	0x35174647	5.635415e-07
147	0x35174647	5.635415e-07
148	0x35174647	5.635415e-07
149	0x35174647	5.635415e-07
150	0x35174647	5.635415e-07
151	0x35174647	5.635415e-07
152	0x35174647	5.635415e-07
153	0x35174647	5.635415e-07
154	0x35174647	5.635415e-07
155	0x35174647	5.635415e-07
156	0x35174647	5.635415e-07
157	0x35174647	5.635415e-07
158	0x35174647	5.635415e-07
159	0x35174647	5.635415e-07
160	0x35174647	5.635415e-07
161	0x35174647	5.635415e-07
162	0x35174647	5.635415e-07
163	0x35174647	5.635415e-07
164	0x35174647	5.635415e-07
165	0x35174647	5.635415e-07
166	0x35174647	5.635415e-07
167	0x35174647	5.635415e-07
168	0x35174647	5.635415e-07
169	0x35174647	5.635415e-07
170	0x35174647	5.635415e-07
171	0x35174647	5.635415e-07
172	0x35174647	5.635415e-07
173	0x35174647	5.635415e-07
174	0x35174647	5.635415e-07
175	0x35174647	5.635415e-07
176	0x35174647	5.635415e-07
177	0x35174647	5.635415e-07
178	0x35174647	5.635415e-07
179	0x35174647	5.635415e-07
180	0x35174647	5.635415e-07
181	0x35174647	5.635415e-07
182	0x35174647	5.635415e-07
183	0x35174647	5.635415e-07
184	0x35174647	5.635415e-07
185	0x35174647	5.635415e-07
186	0x35174647	5.635415e-07
187	0x35174647	5.635415e-07
188	0x35174647	5.635415e-07
189	0x35174647	5.635415e-07
190	0x35174647	5.635415e-07
191	0x35174647	5.635415e-07
192	0x35174647	5.635415e-07
193	0x35174647	5.635415e-07
194	0x35174647	5.635415e-07
195	0x35174647	5.635415e-07
196	0x35174647	5.635415e-07
197	0x35174647	5.635415e-07
198	0x35174647	5.635415e-07
199	0x35174647	5.635415e-07
200	0x35174647	5.635415e-07
201	0x35174647	5.635415e-07
202	0x35174647	5.635415e-07
203	0x350d5198	5.264533e-07
204	0x30593dbf	7.9031887e-10
205	0x3444b459	1.8319533e-07
206	0x30a1d406	1.1774552e-09
207	0x2e5ca1c3	5.0165882e-11
208	0x331dd5d2	3.674888e-08
209	0x35163a47	5.596416e-07
210	0x309bce5d	1.1336386e-09
211	0x313e10d7	2.7658211e-09
212	0x3201b0fa	7.549028e-09
213	0x35153f87	5.559927e-07
214	0x00000000	0.0
215	0x00000000	0.0
216	0x00000000	0.0
217	0x00000000	0.0
218	0x00000000	0.0
219	0x00000000	0.0
220	0x00000000	0.0
221	0x00000000	0.0
222	0x00000000	0.0
223	0x35174647	5.635415e-07
224	0x00000000	0.0
225	0x00000000	0.0
226	0x00000000	0.0
227	0x00000000	0.0
228	0x00000000	0.0
229	0x00000000	0.0
230	0x3566daf3	8.600029e-07
231	0x2ff457fc	4.4445858e-10
232	0x35279184	6.24241e-07
233	0x3063513a	8.269755e-10
234	0x2d207bad	9.1224086e-12
235	0x2b95ba57	1.0638806e-12
236	0x2ee0cde4	1.0222914e-10
237	0x2c0134e1	1.8361356e-12
238	0x3430b00d	1.6455324e-07
239	0x2fb70494	3.329076e-10
240	0x2f83ef6c	2.399888e-10
241	0x2bba63f2	1.3243835e-12
242	0x35aaed09	1.2734973e-06
243	0x35aaed09	1.2734973e-06
244	0x35aaed09	1.2734973e-06
245	0x35aaed09	1.2734973e-06
246	0x35aaed09	1.2734973e-06
247	0x35aaed09	1.2734973e-06
248	0x35aaed09	1.2734973e-06
249	0x35aaed09	1.2734973e-06
250	0x35aaed09	1.2734973e-06
251	0x35aaed09	1.2734973e-06
252	0x35aaed09	1.2734973e-06
253	0x35aaed09	1.2734973e-06
254	0x35aaed09	1.2734973e-06
255	0x35aaed09	1.2734973e-06

exp_avg f4 [64]
0	0xb551b04e	-7.8115124e-07
1	0x37f97219	2.9736244e-05
2	0x39243cdc	0.0001566293
3	0x32a308f8	1.8979776e-08
4	0xb8b67920	-8.7009976e-05
5	0x385beb0c	5.2432573e-05
6	0x399fa771	0.00030451597
7	0x3993952a	0.0002814916
8	0xb966b443	-0.00022001662
9	0xb97e7300	-0.00024266168
10	0xb0a11b94	-1.172213e-09
11	0xb8dffdc9	-0.0001068074
12	0x37f7e7e9	2.9552686e-05
13	0x2f86a1c9	2.4489413e-10
14	0x35f35783	1.813038e-06
15	0x395f7a23	0.00021312437
16	0xb546c3a2	-7.404543e-07
17	0x377b34eb	1.4973087e-05
18	0xb68351f8	-3.9136467e-06
19	0xb64aed0f	-3.0238332e-06
20	0xb09cc924	-1.1407661e-09
21	0xafb4ef7a	-3.2911968e-10
22	0xb4a1c27e	-3.01301e-07
23	0xb1998ee8	-4.4691326e-09
24	0xb93901f0	-0.00017643697
25	0xb1971a0d	-4.39764e-09
26	0x383d97bb	4.520242e-05
27	0xb8a5fe2c	-7.915156e-05
28	0x388444cb	6.307064e-05
29	0xb56da2a7	-8.852607e-07
30	0xaf8df4f1	-2.5821792e-10
31	0x32476856	1.1607048e-08
32	0x3989b6fc	0.0002626701
33	0xb3e03e7a	-1.0442177e-07
34	0xb70effcf	-8.52342e-06
35	0x30789adf	9.044196e-10
36	0xb8896997	-6.552337e-05
37	0x38580d62	5.1510877e-05
38	0x365fb5ad	3.3335339e-06
39	0xb85acdcf	-5.2166924e-05
40	0xb907afca	-0.0001294009
41	0xb1a91659	-4.921088e-09
42	0xb9a897d0	-0.00032156566
43	0x38e6a275	0.000109975146
44	0x310cdd48	2.0498465e-09
45	0x37e33299	2.708407e-05
46	0x380209bb	3.1003477e-05
47	0x3831a566	4.2354128e-05
48	0x387a8214	5.972579e-05
49	0xb3d88528	-1.0082505e-07
50	0x2ea7f3ed	7.637611e-11
51	0x355ec1c5	8.2983416e-07
52	0x382404a2	3.910496e-05
53	0xb31cd12b	-3.6511818e-08
54	0xaff0d676	-4.380813e-10
55	0xb680a374	-3.8337257e-06
56	0xb3afe2be	-8.190317e-08
57	0xb85abfd2	-5.2153897e-05
58	0xb8b4aa7d	-8.614825e-05
59	0xb6898d47	-4.099365e-06
60	0x38445900	4.681293e-05
61	0x3446c9bc	1.8513578e-07
62	0x3722e6c3	9.709681e-06
63	0xb1f7e8c4	-7.2151085e-09

exp_avg_sq f4 [64]
0	0x2f3d8860	1.72379e-10
1	0x35174647	5.635415e-07
2	0x35aaed09	1.2734973e-06
3	0x2798ac30	4.237516e-15
4	0x359092fa	1.0771612e-06
5	0x342cfc30	1.6110494e-07
6	0x34e555ae	4.2716914e-07
7	0x3520cf14	5.9905983e-07
8	0x35dfc85c	1.6673107e-06
9	0x3568d90f	8.6742597e-07
10	0x24de7f7b	9.649311e-17
11	0x345720d6	2.0035381e-07
12	0x3294b583	1.731201e-08
13	0x228f455b	3.883366e-18
14	0x3036aa64	6.6453354e-10
15	0x34b7226d	3.4111454e-07
16	0x2d630c33	1.2906165e-11
17	0x3348cdf0	4.6753428e-08
18	0x335017b8	4.8450346e-08
19	0x3014b8f4	5.410492e-10
20	0x24a6c6fa	7.2328104e-17
21	0x224694dc	2.691281e-18
22	0x2b21095c	5.721168e-13
23	0x26003d9e	4.449243e-16
24	0x3548e227	7.48349e-07
25	0x2a03e9f7	1.171631e-13
26	0x32aacf0d	1.988476e-08
27	0x3386cbb4	6.2769146e-08
28	0x33a9d8d1	7.9091144e-08
29	0x2cee7cd4	6.7782256e-12
30	0x227b23bd	3.4035763e-18
31	0x2b1a7f8c	5.48888e-13
32	0x35577566	8.026458e-07
33	0x2c207aaf	2.280547e-12
34	0x30e206da	1.6445612e-09
35	0x28018f5d	7.1920255e-15
36	0x33ee0bec	1.1084907e-07
37	0x33c0d9ab	8.98029e-08
38	0x2f49138d	1.828779e-10
39	0x340106cc	1.2016534e-07
40	0x341ec624	1.478698e-07
41	0x288b828a	1.5488712e-14
42	0x357a83d8	9.3324115e-07
43	0x34d2fe8a	3.930075e-07
44	0x2587d844	2.3565314e-16
45	0x32486798	1.1665087e-08
46	0x351deab9	5.8828624e-07
47	0x33cb9ca3	9.481416e-08
48	0x34526e01	1.9597793e-07
49	0x2a9949cc	2.7229467e-13
50	0x22d34677	5.7266272e-18
51	0x2e6af892	5.3426215e-11
52	0x3479bcb5	2.3258583e-07
53	0x2baf4d36	1.2455928e-12
54	0x232d36db	9.389965e-18
55	0x3310b77f	3.36945e-08
56	0x2a1dec0a	1.4026294e-13
57	0x34888f51	2.543625e-07
58	0x354bd4f9	7.593331e-07
59	0x3050848e	7.585833e-10
60	0x33275488	3.8959598e-08
61	0x2c967cf0	4.2771273e-12
62	0x30d06be0	1.5164652e-09
63	0x28c2f48e	2.1644385e-14

exp_avg f4 [32, 64]
0	0xb66d18ca	-3.5330181e-06
1	0xb62df6aa	-2.5922586e-06
2	0xb5ccaf50	-1.5250207e-06
3	0x3676a70c	3.675409e-06
4	0x363ad8d7	2.7842377e-06
5	0xb6354757	-2.7012627e-06
6	0xb5609f56	-8.3678367e-07
7	0xb56d00fe	-8.8290824e-07
8	0x35e79654	1.7254592e-06
9	0x35e04349	1.6708883e-06
10	0xb676afaa	-3.6759106e-06
11	0x35ef6ad6	1.7837981e-06
12	0x3632e4fa	2.6657349e-06
13	0xb676b13a	-3.6760016e-06
14	0xb6737c7a	-3.6282277e-06
15	0xb5899376	-1.0250212e-06
16	0x36760c9d	3.6664198e-06
17	0xb57ab812	-9.3400115e-07
18	0xb5d2cb60	-1.5705409e-06
19	0x366b6a4a	3.5079597e-06
20	0xb676b0c5	-3.675975e-06
21	0xb676b134	-3.6760002e-06
22	0x367682d9	3.673302e-06
23	0x3676ae79	3.6758413e-06
24	0xb589d995	-1.027062e-06
25	0x36764fd5	3.6703325e-06
26	0xb625cdfb	-2.4706812e-06
27	0x361dffb8	2.354367e-06
28	0x35d4694c	1.5825876e-06
29	0xb674f899	-3.6503536e-06
30	0xb676b12c	-3.6759984e-06
31	0xb6766af4	-3.6719111e-06
32	0xb5988df2	-1.1366194e-06
33	0x36763041	3.6684944e-06
34	0xb65e9471	-3.3166982e-06
35	0x3676af0a	3.6758743e-06
36	0xb593354c	-1.0967865e-06
37	0x3597e5c4	1.1317247e-06
38	0x366a516c	3.491611e-06
39	0x35ab5e99	1.2768024e-06
40	0xb4f02690	-4.4731541e-07
41	0x3676adaf	3.6757954e-06
42	0x35b9cee7	1.3843791e-06
43	0xb4e84a66	-4.32675e-07
44	0x3676aeca	3.6758597e-06
45	0xb6169b65	-2.2442193e-06
46	0x34c0e628	3.5930248e-07
47	0x35ff7fa5	1.903613e-06
48	0xb58c8416	-1.0469255e-06
49	0xb676864f	-3.6735034e-06
50	0x3676b11d	3.675995e-06
51	0x367464cf	3.6417512e-06
52	0xb6516cf9	-3.1206857e-06
53	0xb6768529	-3.6734366e-06
54	0xb676b0ff	-3.6759882e-06
55	0xb653d117	-3.1563156e-06
56	0x3676a6d4	3.6753963e-06
57	0x364faced	3.094606e-06
58	0x35dffe8f	1.6688881e-06
59	0x366cc69f	3.5282353e-06
60	0x361cedc2	2.3384205e-06
61	0x36756d8f	3.6571616e-06
62	0xb6686c7d	-3.4633842e-06
63	0x3676a31f	3.6751806e-06
64	0xb8abae10	-8.186337e-05
65	0xb8453ef1	-4.702708e-05
66	0xb7c35ae5	-2.3288138e-05
67	0x38b0bfcf	8.428061e-05
68	0x384b9cb1	4.85449e-05
69	0xb8680469	-5.5317218e-05
70	0x370add16	8.276917e-06
71	0x362ab7cd	2.543896e-06
72	0x37b6192b	2.170781e-05
73	0x3797251e	1.8017887e-05
74	0xb8b0c54c	-8.4290834e-05
75	0x37c16107	2.3052575e-05
76	0x38895924	6.549273e-05
77	0xb8b0c651	-8.429273e-05
78	0xb8ad7db1	-8.272695e-05
79	0xb5d6be23	-1.599958e-06
80	0x38b03b89	8.403423e-05
81	0xb7b1e15f	-2.120499e-05
82	0xb830626f	-4.2053343e-05
83	0x38a71ba9	7.968333e-05
84	0xb8b0c601	-8.429215e-05
85	0xb8b0c658	-8.4292784e-05
86	0x38b09156	8.419405e-05
87	0x38b0c45b	8.428908e-05
88	0xb7fd67f0	-3.020835e-05
89	0x38b07cd0	8.415582e-05
90	0xb83a8ac4	-4.447509e-05
91	0x381c0c7a	3.7204918e-05
92	0x3849e978	4.813957e-05
93	0xb8aff69f	-8.390587e-05
94	0xb8b0c642	-8.4292624e-05
95	0xb8b08ef9	-8.418965e-05
96	0xb665a9a7	-3.422241e-06
97	0x38b0752e	8.4141604e-05
98	0xb8a347f7	-7.78585e-05
99	0x38b0c4b3	8.428972e-05
100	0xb8069995	-3.2091124e-05
101	0x3807c593	3.2370514e-05
102	0x38a9a271	8.088805e-05
103	0x37790eb3	1.4844979e-05
104	0xb7b86b1b	-2.1984384e-05
105	0x38b0c3b3	8.428786e-05
106	0x36d295a2	6.2759073e-06
107	0xb733dbc3	-1.0720399e-05
108	0x38b0c4e6	8.429009e-05
109	0xb84bbaad	-4.8572827e-05
110	0x36e8c6c3	6.9372777e-06
111	0x38446efb	4.68334e-05
112	0xb6a4ba95	-4.909302e-06
113	0xb8b0aa7a	-8.424088e-05
114	0x38b0c640	8.429261e-05
115	0x38af7c57	8.3678104e-05
116	0xb88de939	-6.766845e-05
117	0xb8b0a883	-8.423722e-05
118	0xb8b0c61c	-8.429235e-05
119	0xb8969692	-7.180603e-05
120	0x38b0b7ea	8.426591e-05
121	0x38786d85	5.9229806e-05
122	0x380297ad	3.1135674e-05
123	0x38a7aa92	7.994952e-05
124	0x3880a59d	6.1343635e-05
125	0x38b007d1	8.39379e-05
126	0xb8a3f112	-7.8173485e-05
127	0x38b0b94c	8.426848e-05
128	0x338b9b04	6.500889e-08
129	0x33358122	4.2259792e-08
130	0x326f299c	1.3921092e-08
131	0xb38f75b2	-6.680365e-08
132	0xb31b9f64	-3.6233715e-08
133	0x33357c5b	4.2255447e-08
134	0xb1ccb43a	-5.957671e-09
135	0xb1dc18b4	-6.405651e-09
136	0xb292363f	-1.7021305e-08
137	0xb2961467	-1.7471576e-08
138	0x338f7aa8	6.6812675e-08
139	0xb2b32622	-2.0855683e-08
140	0xb36ae36f	-5.468922e-08
141	0x338f7b7c	6.681418e-08
142	0x338cd55f	6.55807e-08
143	0xb03d4e49	-6.886905e-10
144	0xb38ef6fc	-6.6573165e-08
145	0x328da7ba	1.6490834e-08
146	0x3310fed3	3.3759374e-08
147	0xb3877b07	-6.308806e-08
148	0x338f7b29	6.681359e-08
149	0x338f7b85	6.6814245e-08
150	0xb38f48b3	-6.67218e-08
151	0xb38f79b4	-6.681094e-08
152	0x331f0ca2	3.7031562e-08
153	0xb38f3549	-6.668649e-08
154	0x3310ea70	3.3740832e-08
155	0xb2d6bb14	-2.4997952e-08
156	0xb32de6ca	-4.0489603e-08
157	0x338ec762	6.648658e-08
158	0x338f7b75	6.681413e-08
159	0x338f4762	6.671941e-08
160	0x2f75dd9f	2.2361356e-10
161	0xb38f4735	-6.671909e-08
162	0x3382b2a4	6.086091e-08
163	0xb38f79fd	-6.681146e-08
164	0x32f2a3d4	2.8247008e-08
165	0xb314cc15	-3.4644547e-08
166	0xb3887640	-6.354503e-08
167	0xb203901d	-7.657971e-09
168	0x32b49e58	2.1026764e-08
169	0xb38f798d	-6.6810664e-08
170	0xb070d94e	-8.76203e-10
171	0x31d7d3ff	6.2814247e-09
172	0xb38f7aae	-6.681272e-08
173	0x3322c160	3.7894438e-08
174	0xb22b13da	-9.958024e-09
175	0xb33a6f15	-4.340753e-08
176	0xaf8b3cc1	-2.532712e-10
177	0x338f671d	6.6777126e-08
178	0xb38f7b75	-6.681413e-08
179	0xb38eaca7	-6.6437956e-08
180	0x3357071f	5.0065065e-08
181	0x338f642f	6.67718e-08
182	0x338f7b6c	6.681407e-08
183	0x3369171f	5.427057e-08
184	0xb38f6fa8	-6.6792666e-08
185	0xb361e5c2	-5.259586e-08
186	0xb2ac1e20	-2.0037135e-08
187	0xb38615eb	-6.243848e-08
188	0xb3580beb	-5.030226e-08
189	0xb38edbfb	-6.6524045e-08
190	0x33830e06	6.102714e-08
191	0xb38f714b	-6.679564e-08
192	0x3395de94	6.97884e-08
193	0x3453b764	1.9717623e-07
194	0x34cc6b87	3.8076197e-07
195	0xb3366a3b	-4.2471793e-08
196	0xb498b2c9	-2.844229e-07
197	0x344c892e	1.9048886e-07
198	0x358a975e	1.0325855e-06
199	0x354e8453	7.693354e-07
200	0xb5131909	-5.47982e-07
201	0xb5469a75	-7.398551e-07
202	0x3335b821	4.230981e-08
203	0xb48e4e08	-2.6506336e-07
204	0x33dbe38d	1.02393734e-07
205	0x3335c8ae	4.2324864e-08
206	0x33472dce	4.6374957e-08
207	0x35761139	9.1667204e-07
208	0xb33c5128	-4.3845972e-08
209	0x350e9250	5.3112035e-07
210	0xb50e7536	-5.3069687e-07
211	0xb2d346dd	-2.4595858e-08
212	0x3335be3b	4.231536e-08
213	0x3335c6a1	4.2323e-08
214	0xb33589fb	-4.226784e-08
215	0xb335f0a1	-4.2361197e-08
216	0xb4c646d7	-3.6931917e-07
217	0xb334a2a8	-4.205745e-08
218	0xb44f9615	-1.9332977e-07
219	0xb4082456	-1.2679206e-07
220	0x34a37c53	3.0451574e-07
221	0x33260b81	3.866035e-08
222	0x3335c781	4.2323794e-08
223	0x3331763b	4.1318554e-08
224	0x3539fe8e	6.9288296e-07
225	0xb33575ee	-4.2249603e-08
226	0xb357952b	-5.0194256e-08
227	0xb335d548	-4.2336325e-08
228	0xb512d541	-5.4699564e-07
229	0x34de2bbf	4.1382552e-07
230	0x30b4209b	1.3105991e-09
231	0xb3f420bc	-1.136809e-07
232	0xb522c190	-6.0631373e-07
233	0xb336124e	-4.2391825e-08
234	0xb50d8fa8	-5.273564e-07
235	0x350f762d	5.344362e-07
236	0xb335df9b	-4.2345714e-08
237	0xb40cafe5	-1.3102506e-07
238	0x3514753d	5.53049e-07
239	0x34b270e3	3.323722e-07
240	0x332e6517	4.0604473e-08
241	0x33356955	4.2238145e-08
242	0xb335c921	-4.2325272e-08
243	0xb322866e	-3.7840827e-08
244	0x33bb7288	8.728699e-08
245	0x33321e95	4.147167e-08
246	0x3335c875	4.232466e-08
247	0x31d62b44	6.2331384e-09
248	0xb3358ebb	-4.227216e-08
249	0xb4c40655	-3.6512452e-07
250	0xb517f652	-5.6610327e-07
251	0xb32f1fdb	-4.0774335e-08
252	0x348d9e78	2.6378598e-07
253	0xb34335fb	-4.545107e-08
254	0x32c00e77	2.235832e-08
255	0xb3348cb5	-4.2037488e-08
